checkpoint15.pth (torch_old, 28417 bytes, 6 tensors)

fc1.weight f4 [64, 37]
000000 d2 40 d9 bd e4 8d c7 3d fa ed 82 bd 1a 24 0c 3e
       -0.106080666 0.0974386 -0.06393047 0.13685647
000010 fa b6 18 3e 75 02 92 3d fb 65 8c 3d f1 40 b1 bc
       0.1491355 0.07129375 0.06855389 -0.021637412
000020 aa 6f 81 3e ae 41 06 3e ae 05 e1 3d 3b 34 93 bd
       0.25280505 0.13110992 0.109874114 -0.071876965
000030 f1 c7 bf bd fd a9 4c be 95 29 a8 be b1 cd b1 3e
       -0.09364308 -0.1998672 -0.32844225 0.34727243
000040 d8 b2 cd be 63 bd 82 be 36 7e b3 be cb ee 9c bf
       -0.4017551 -0.25535116 -0.3505723 -1.2260374
000050 81 ce 9e 3d f5 58 17 3e f6 db a2 3d 46 bf 0b 3e
       0.07754231 0.14780028 0.079521105 0.13647184
000060 1f 79 37 bb ec 44 25 3b 26 64 03 3c a2 13 c3 bc
       -0.0027995778 0.0025218083 0.008019483 -0.023813073
000070 0e cd 01 3e b4 47 01 3e 77 a9 9a 3d b3 65 67 bd
       0.12675878 0.12625009 0.07551854 -0.056493472
000080 9c 50 f7 3b f2 04 86 bb 95 ca 70 bd 2e 25 35 3d
       0.007547451 -0.004089945 -0.058786947 0.04422491
000090 92 a1 1f bc 1f dd a4 3e d5 6f f8 3d bb e6 23 be
       -0.009743111 0.32199952 0.12130705 -0.16005985
0000a0 a7 9a 62 be 06 d8 c7 be f6 0d 92 3d 33 e2 54 be
       -0.22129308 -0.39032 0.07131569 -0.20789413
0000b0 f4 f6 7d bd 3a d8 56 be 08 0c 1a bf 53 0a e3 3c
       -0.06200309 -0.20980921 -0.6017461 0.027714884
0000c0 e7 a3 83 bd c8 ba c2 bc 9f c3 1e 3e d0 60 68 3e
       -0.06427746 -0.023770705 0.15504311 0.22693181
0000d0 df ab 0b 3e ec 21 c0 3d 7a af 59 bc a6 c9 7e be
       0.13639782 0.0938147 -0.013286466 -0.2488161
0000e0 a4 ab 18 3d dc 50 e4 bc fa 0a e4 bd de b2 d2 bd
       0.037273064 -0.027870588 -0.11134906 -0.102880225
0000f0 f7 4a 1b be b2 59 2c 3e 96 7e 34 bc 36 99 49 be
       -0.15165316 0.16831091 -0.011016509 -0.19687352
000100 9a a9 d4 3d a1 e8 9a 3b d3 3f d7 3c a9 43 65 bd
       0.103839114 0.0047274386 0.026275551 -0.05597273
000110 f0 4f ed 3d 42 75 27 3e 20 47 fc bb b6 e7 83 bb
       0.115875125 0.16353324 -0.0076989084 -0.004025425
000120 ee 9b 06 3c 53 e5 3f 3c dd e5 34 3c 92 20 98 3e
       0.0082158875 0.01171239 0.011041132 0.2971235
000130 59 a8 6f be aa c1 bb 3a 70 7b d1 3a a7 f1 c7 be
       -0.23404063 0.0014324684 0.0015982222 -0.39051554
000140 e8 b3 0f bf b9 29 b5 3e bc 0f ea bd 1f 81 5b be
       -0.5613389 0.35383394 -0.11428782 -0.21435975
000150 e2 e5 79 be 1a 0d 19 bd 1c f4 a2 bd 69 a1 13 3e
       -0.244041 -0.03736601 -0.079567164 0.14417042
000160 9f 57 09 3f 9e a8 d1 be 20 ba ef bb e6 12 55 3d
       0.53649324 -0.40948957 -0.007315889 0.052019976
000170 d0 83 8b 3e 50 cc 0c be 1f 44 c2 be ef 4e 06 3d
       0.27249002 -0.13749814 -0.37942597 0.03279012
000180 31 3b 74 bd fb 5f 17 3e c0 f5 ac bd 7e 9e b5 be
       -0.05962676 0.14782707 -0.084453106 -0.35472482
000190 7c 39 30 bd ec 12 49 3e 54 91 1f bc 2b bb 35 bd
       -0.04302357 0.19636124 -0.009739239 -0.04436795
0001a0 c8 25 9c be ef 47 1e bd 64 d1 c6 bd 3f c6 8d be
       -0.30497575 -0.03864282 -0.09707907 -0.27690312
0001b0 c5 fa b6 3d e6 4a 20 bd e3 2e 37 3c 1d 4d 15 bf
       0.08934549 -0.03913393 0.011180612 -0.5832079
0001c0 be ef 0d 3d 33 1b 9b 3e b6 4b de be d2 07 b9 bf
       0.034652464 0.3029419 -0.43417138 -1.4455512
0001d0 9e 42 ca be 5e 7e 3d be ff 63 41 3e 53 4c fb bd
       -0.3950395 -0.18505237 0.18885802 -0.12270417
0001e0 ee c3 41 be c0 8e 78 3d 5f 57 3a bf c0 d6 8b be
       -0.18922397 0.060683012 -0.7278957 -0.2731228
0001f0 aa 60 98 bd 47 00 b8 bd af 33 b2 be 21 fa 1a bf
       -0.07440312 -0.08984428 -0.34805056 -0.60537916
000200 77 fa 17 3e ff c9 13 bf eb 1e 93 bf 9f e8 14 3d
       0.14841639 -0.57730097 -1.149381 0.036354657
000210 29 58 9f be 15 0c db bd 88 dd df be 73 a8 87 3e
       -0.31121948 -0.10695664 -0.43723702 0.26495704
000220 6a 6d 96 bd 81 17 e3 be 91 6d fa 3d fc 86 d0 be
       -0.07345088 -0.4435387 0.122279294 -0.40727985
000230 ef 35 17 be 58 c0 62 3c 94 86 33 3d b4 39 b5 bd
       -0.14766668 0.013839804 0.043829516 -0.088488966
000240 35 7f 22 bf 8c 4b 46 bd 53 7d 03 3d cb 56 b2 bc
       -0.6347535 -0.04841189 0.03210194 -0.021769902
000250 a3 a6 8b be 13 22 9b bd 79 e7 73 be 70 1b 28 bd
       -0.2727557 -0.075748585 -0.23818769 -0.04104179
000260 71 2a 87 3d db 31 5e bf 91 84 2d 3e 50 9a ad 3e
       0.06599892 -0.86794823 0.16945101 0.33906794
000270 2d 9d d5 bd fe 6d 29 bf 09 60 a2 bd db 07 32 3d
       -0.104303695 -0.6618346 -0.079284735 0.043464523
000280 78 ba 41 3e 71 1d e3 be 7b a7 52 be c4 74 37 be
       0.18918788 -0.443584 -0.20571701 -0.17915636
000290 64 30 ee bb 7b bd 83 3b ba 9c f3 bd 7f 3b a3 3c
       -0.007268952 0.0040203906 -0.118951276 0.01992583
0002a0 1e 62 b2 be 8b 55 85 3e 0c 48 d8 3d 5b 8a e3 be
       -0.34840482 0.26041827 0.10560617 -0.44441494
0002b0 10 e2 c4 bd 7e 60 af bc c2 b6 13 3e 67 8e 32 3e
       -0.096134305 -0.021408316 0.14425185 0.17437135
0002c0 30 4c 11 bf 03 42 41 be e8 0f 9c be ac c1 c9 3d
       -0.5675688 -0.18872838 -0.30480886 0.09851393
0002d0 0d fb 7d 3e 14 5e cd be a5 a3 82 be 5c 4d fc bc
       0.248028 -0.40110838 -0.25515476 -0.030798607
0002e0 f5 d2 40 3b 15 1f 40 3d 77 2d 45 3d 6e f3 10 3d
       0.0029422615 0.046904642 0.04813906 0.035388403
0002f0 fb d9 32 3d 0f 6b 9c bc d1 5a db 3e aa e8 2e bd
       0.043664914 -0.019094018 0.42842725 -0.042702354
000300 19 cb bb be bb 72 04 bf fb e0 2a c0 b7 b3 33 bc
       -0.3667839 -0.51737565 -2.6699817 -0.01096814
000310 10 74 de 3c 93 27 ee 3c 0a 73 e2 3c 6f 60 f4 3d
       0.027154952 0.029071605 0.027642746 0.11932456
000320 bb 57 55 bc 13 ff 9b 3d 4e f0 df 3d 57 e0 85 3d
       -0.013021405 0.07617011 0.10934506 0.0653693
000330 b9 48 69 bd 96 41 de 3d f5 3d 61 3e 42 f6 04 3e
       -0.05695412 0.10852353 0.21996291 0.12984565
000340 ed a6 ae 3d 7c e4 ae bd e5 b8 3b bd 64 92 e3 3d
       0.08527932 -0.08539674 -0.045830626 0.11111906
000350 08 a8 a7 3d f2 3d 3f 3d 5e 2c 56 3e be f2 ae 3d
       0.08186346 0.046689935 0.20915362 0.08542393
000360 14 67 08 bc 05 4e c8 3c 11 23 1d 3e 8b 41 f4 3d
       -0.008325357 0.024451265 0.15345408 0.11926564
000370 1c 47 35 3b c7 c4 b8 3b ca 1d d7 3e 8a 31 cd be
       0.0027660793 0.005638692 0.42014915 -0.40076858
000380 8b 08 9b be 07 f4 cb be aa b0 f0 bf 95 2e 0a bc
       -0.30279955 -0.39834616 -1.8803914 -0.008433958
000390 4c 2c 92 bd a7 a8 44 bd 07 c6 b3 3d 98 d0 e4 3d
       -0.07137355 -0.048012402 0.08778005 0.111725986
0003a0 0b ab c4 3d e1 45 02 3e ed 7c 10 3e bc 81 23 bd
       0.09602936 0.12721969 0.14110155 -0.039918646
0003b0 3e d6 41 be a0 28 13 3d cc 5e 34 be ac 30 4c 3d
       -0.18929383 0.035927415 -0.17614287 0.049851105
0003c0 ec 22 8b 3d a9 d7 45 3e 8e e6 4c bd 04 73 8e bc
       0.0679377 0.19320549 -0.05002456 -0.017388828
0003d0 2f 0b 71 3d b4 da f2 bb 2b 01 25 3c d9 10 e6 bd
       0.058848556 -0.0074113254 0.010071079 -0.11233682
0003e0 bf 89 a9 bc f8 ee 22 bd b4 b5 a8 bd 47 26 09 3e
       -0.020695565 -0.03977868 -0.08237782 0.13393508
0003f0 d8 6c f1 3d d8 df 39 3d 48 be 0c bc 04 59 ca bd
       0.117883384 0.04537949 -0.008590288 -0.0988026

fc1.bias f4 [64]
000000 bc 68 24 3e 47 11 82 bd 6a 82 6b be 45 3b f7 bd
       0.16055578 -0.06350952 -0.22998968 -0.12071852
000010 fc 05 20 3e 72 6a 8c 3d 94 71 3c bc 46 e0 8b 3d
       0.15627283 0.0685624 -0.0115016885 0.06829886
000020 44 73 77 3d af 7a 88 be 80 4f db 3d 0c 2b 5b 3e
       0.06041266 -0.266561 0.10708523 0.2140314
000030 f4 79 9b 3d 7e 1e 95 3d d5 e4 33 be 7f 68 9d bd
       0.0759162 0.072812065 -0.17567761 -0.07685947
000040 8e d8 63 3d 5b ac 1e 3d b5 13 c3 bd 67 d5 87 be
       0.055626445 0.03873859 -0.09525243 -0.2653
000050 5d af de bd e9 44 8a bc 98 6b 5b 3e d0 01 c7 bd
       -0.10873292 -0.016878562 0.21427763 -0.097171426
000060 88 71 90 bd 8c a9 75 3e 9c 5b a3 3c ad 16 3d be
       -0.07052904 0.23990458 0.019941144 -0.18465681
000070 7e 73 fb 3d 21 89 0d bd df c4 3f bd 38 ca d8 bd
       0.12277888 -0.034554604 -0.04681861 -0.10585445
000080 aa db 26 3e e4 ab 75 3d 79 17 25 be 46 21 d3 3c
       0.16294733 0.05997838 -0.16122235 0.025772702
000090 f7 b8 58 bd cd fc 1d 3d e4 a8 4c bd e3 f3 24 be
       -0.05291077 0.038571168 -0.049965754 -0.1610866
0000a0 c3 87 01 bc b8 df 39 bd 78 bf 9d bd 73 f0 d8 3d
       -0.007905903 -0.04537937 -0.077025354 0.10592737
0000b0 53 42 08 be 51 38 28 be 24 76 cd bc 6d 15 ef bd
       -0.1330655 -0.16427733 -0.025080748 -0.116740085
0000c0 1c bf 10 be c4 ce 07 3e 85 30 07 be 24 0f 6e bb
       -0.14135402 0.13262469 -0.13202102 -0.0036324942
0000d0 5c b1 ad bc 63 c6 1e bd 01 c2 22 be c7 11 81 bd
       -0.021202736 -0.038763415 -0.15894319 -0.06302219
0000e0 c1 31 ca 3d 93 c3 0a be 94 36 c8 bd b6 a7 b2 bd
       0.09872771 -0.13551168 -0.09776035 -0.087233946
0000f0 76 08 13 bd 51 43 a9 3d 01 b4 7e 3d bd 19 29 3d
       -0.03589674 0.08264793 0.062183384 0.04128431

fc2.weight f4 [64, 64]
000000 05 4e 37 be 02 14 bb bd 89 63 71 be ad 29 5d 3e
       -0.17900856 -0.091346756 -0.23573126 0.2159793
000010 5a 5b 3b 3e e7 58 39 3c ef d4 b8 be 3b 13 ad be
       0.18296567 0.0113127 -0.36099955 -0.33803734
000020 20 41 36 be dd 58 55 be 8d b6 b3 be 60 b3 d6 be
       -0.1779828 -0.2083468 -0.35100213 -0.41933727
000030 3f 93 ea be 63 98 97 bd 29 4d f5 be b2 93 76 be
       -0.45815465 -0.07402112 -0.4791043 -0.24079779
000040 cc ab 5c be 27 06 c8 3e 60 2b 15 be ad 2c 2d be
       -0.2154991 0.39067194 -0.14567327 -0.16911574
000050 e7 fd c6 bb dd a5 83 bd 82 70 82 3d c4 f1 11 bf
       -0.006072748 -0.0642812 0.063691154 -0.5700953
000060 37 6f eb bd ad fc 94 3d f6 21 19 be 2d 75 07 bf
       -0.11495822 0.072747566 -0.14954361 -0.5291317
000070 d4 38 04 bf 5a eb af be be 3b cf bd a1 ac 46 3e
       -0.5164921 -0.34359246 -0.10118817 0.1940179
000080 d9 54 29 3e 54 d8 1b bb 61 5c 98 3b 31 62 74 bd
       0.16536273 -0.0023780065 0.0046496843 -0.059663955
000090 27 a1 47 be 1d 6e 8d bd 32 68 cb bc a1 42 d7 bc
       -0.19495068 -0.06905768 -0.024829958 -0.026276888
0000a0 31 e4 08 bf fe 4c c1 be 38 b7 e5 3e 59 f6 96 be
       -0.5347319 -0.37754053 0.44866347 -0.29484823
0000b0 a0 9c 81 bc 61 1a a5 bd 37 e2 8c be 0f 2b 33 3d
       -0.015821755 -0.08061672 -0.27516338 0.043742236
0000c0 7e 80 a5 bc 8a 52 cd bd a6 86 cb be 48 80 f1 bd
       -0.020202871 -0.10025509 -0.39751166 -0.11792046
0000d0 ba 5c 62 bf df 56 17 be de 06 8b 3d c0 73 28 be
       -0.8842274 -0.14779232 0.06788419 -0.16450405
0000e0 20 28 ef bc ee 45 4f 3e 17 d9 5e bf ce 1f 2b 3e
       -0.029193938 0.2024152 -0.8705 0.16711351
0000f0 d6 9a 9f ba 60 51 e6 bd 06 d7 b4 3e b1 99 c3 bd
       -0.0012176882 -0.1124599 0.353203 -0.09550799
000100 28 31 13 be 6c 6b 08 3d 54 3e 3b be f6 e1 0c 3e
       -0.1437422 0.03330557 -0.18285495 0.13758072
000110 d6 54 4a bf 46 89 94 3e 4c bf a1 be 48 b7 fd 3c
       -0.790357 0.2901098 -0.3159126 0.030971184
000120 c3 23 31 3e 75 4d 1b 3e de 8a 86 bd 87 eb dd 3e
       0.17298798 0.15166266 -0.065694556 0.43343756
000130 11 20 7b 3c 08 46 f0 3c 54 d1 16 3d 0b 9f 90 be
       0.015327469 0.029330269 0.036820725 -0.2824634
000140 06 76 3d bd 9f 64 b5 bd fd 50 01 3d 55 0d d6 bd
       -0.046255134 -0.088570826 0.031571377 -0.10451762
000150 38 bc bd 3c 22 87 36 3d c6 06 85 3d 73 51 44 bd
       0.023161039 0.044562466 0.064954326 -0.04792924
000160 77 5e 82 3d 3b 5a 54 3e 78 bf d8 bd 56 18 03 be
       0.06365674 0.20737545 -0.10583395 -0.12802252
000170 e1 b7 c5 3d 55 1d 9d bc 01 db 8c bd f7 79 30 3e
       0.09654213 -0.019179026 -0.06877709 0.17234026
000180 ef 1d 7a be dd d6 99 3d ee ff 4e be e9 6e 95 3d
       -0.24425481 0.07511685 -0.20214817 0.07296545
000190 e6 cb 5d be 18 56 79 bd 63 20 82 bc fa 84 08 be
       -0.21659812 -0.06087312 -0.015884584 -0.13331977
0001a0 2a 78 fc bb 62 95 e0 bd 69 4e aa 3d ba 45 2e be
       -0.0077047544 -0.109659925 0.08315737 -0.17018786
0001b0 c6 7a 96 3d bf c0 dd 3d 9a 8a 3a be fb e8 fc bb
       0.07347636 0.10827779 -0.18216935 -0.007718203
0001c0 80 75 2f bd 8e 90 a5 be 5a df c9 bd d2 b0 19 3e
       -0.042836666 -0.3233685 -0.09857054 0.15008858
0001d0 90 6d 69 3b f4 06 b4 3d 9b df 31 be e4 e1 4f 3d
       0.0035618283 0.08790389 -0.17370455 0.050752535
0001e0 4c 9e fa bd fc b2 f8 3c d3 cf 1d 3e 08 e2 48 3e
       -0.12237224 0.030358784 0.1541131 0.19617474
0001f0 a3 fd 2c be 4d 4b 0a be c8 dc 1a be fe e1 0a bf
       -0.1689363 -0.13505287 -0.15123284 -0.54251087
000200 f4 74 2c bd c3 46 f0 3d e7 a8 64 3d 62 b8 a2 bd
       -0.042103723 0.11732247 0.05582514 -0.079453245
000210 f0 fd 62 be 78 9c 72 be 65 2c 3e 3c 0b 8a 8b 3e
       -0.22167182 -0.236925 0.011607264 0.27253756
000220 b1 0b 6f bf bc de b2 be 16 d9 2b 3f fe 0f b7 be
       -0.93377215 -0.34935558 0.6712812 -0.3575439
000230 92 d2 80 be 15 81 0b bd 4f 03 20 3b 57 7f e3 bd
       -0.25160652 -0.03405865 0.0024416035 -0.111082725
000240 f9 c6 ea bd ad 65 7f 3d 7a 03 d5 3b ec e5 a1 bd
       -0.11463732 0.062352825 0.0065006586 -0.07905182
000250 bd 44 3d be cc 82 14 3e 4d b6 a3 bd c5 21 30 bd
       -0.18483253 0.1450302 -0.079937555 -0.043000955
000260 f1 e2 8a be a6 79 5d bd 7b 42 bd 3e be b7 d3 be
       -0.27126268 -0.05407109 0.36964783 -0.41351122
000270 0a 45 98 3e 8b 7a 3e 3e 36 38 e5 3d 7b 81 24 be
       0.29740173 0.18601434 0.11192362 -0.16065018
000280 96 de 15 be 48 aa 7e 3d 6e f7 fe bc b5 c1 96 bd
       -0.14635691 0.06217411 -0.031123843 -0.073611654
000290 65 6a 89 3b 14 e3 26 be 44 6a 3f bc dd 32 88 bd
       0.0041935914 -0.16297561 -0.011683051 -0.066503264
0002a0 78 83 cb bd fb 70 ac 3d 1d ea 76 3e 8a 18 36 3c
       -0.09937185 0.08419987 0.24112745 0.011114249
0002b0 d6 4c 9b 3c 35 49 b3 3d 15 d0 32 3c 3b ef b5 bd
       0.018957537 0.087541975 0.010913868 -0.0888352
0002c0 02 c1 6a 3c ff 30 78 bd 7c d9 cb 3b 7f 7b 6d be
       0.014328243 -0.0605936 0.0062209945 -0.23191641
0002d0 76 3f 5e be 0f 18 da 3e 85 cc 48 3e a2 f2 d1 3d
       -0.21703896 0.4259648 0.19609268 0.10251357
0002e0 91 c0 39 3c a6 20 c3 be fc 73 4d 3e 1e a7 15 bd
       0.011337415 -0.38110846 0.20063776 -0.03653633
0002f0 67 c7 84 be d9 a5 b9 be 39 d5 f9 3e b8 23 97 bd
       -0.25933382 -0.36259344 0.48795488 -0.0737986
000300 b1 26 db ba bd 18 54 be a0 c3 97 be 9c e5 cd bc
       -0.0016719905 -0.20712562 -0.29641438 -0.0251339
000310 34 91 ba 3d d7 6e 94 3d 03 33 d8 bd 04 12 0d be
       0.091097265 0.072477035 -0.10556605 -0.13776404
000320 95 a5 ec be 1b 7b 0f be 8e ec ce bd f2 5a 86 be
       -0.4622008 -0.14011805 -0.10103713 -0.2624126
000330 36 28 d6 3d ac 2e 19 3e e8 6b 0e be d9 08 a0 be
       0.104568884 0.1495921 -0.1390835 -0.3125675
000340 00 70 3a be a8 95 6b bd 1a 73 dc bd ae 47 2c bd
       -0.18206787 -0.05751577 -0.107641414 -0.042060547
000350 ff 16 d0 3d 53 40 31 be 68 ba 22 bd b9 d8 e2 3d
       0.10160636 -0.17309694 -0.039728552 0.11076493
000360 02 a0 12 be 51 da 42 3e aa 19 ae 3e 61 e9 a6 be
       -0.1431885 0.19028594 0.34003955 -0.3259993
000370 65 6b 92 be 48 74 d0 3b 37 44 5f be 8c 02 52 be
       -0.2859756 0.006361518 -0.21803366 -0.20508784
000380 97 69 9e be 53 da 6e 3c 1e bd ed bd 83 05 42 3d
       -0.30939934 0.01457842 -0.11608337 0.047368538
000390 0c db b3 be 0c 77 b0 3e 9a 9f 0d be 1f 24 15 3e
       -0.35128057 0.34465826 -0.13830414 0.1456456
0003a0 b8 55 7f bd 46 bb d8 3e 7e e0 cf bc fc e2 8c be
       -0.062337607 0.42330378 -0.0253756 -0.27516925
0003b0 ea db b8 3c 82 55 92 bd ce 70 20 3d 56 e9 36 3d
       0.0225658 -0.071452156 0.03917008 0.04465612
0003c0 76 0b 92 be 43 e3 8b 3e 1e c0 0d bf c5 a0 4a bd
       -0.2852437 0.27321824 -0.5537127 -0.049469728
0003d0 19 04 f4 3d 13 a2 9a 3c 52 ad 92 be e2 6e 4f 3e
       0.11914844 0.018876111 -0.28647858 0.20257142
0003e0 48 27 df be 4a 87 8e be 7a 22 24 bf 95 0f 51 be
       -0.43584657 -0.27837592 -0.6411511 -0.204161
0003f0 1f 47 8a be 26 5a 11 bd ee 18 7c be 59 17 ae 3d
       -0.27007386 -0.035486363 -0.24618885 0.08500547

fc2.bias f4 [64]
000000 df e9 ee bd 2f a1 19 3d 01 1a e1 3d 5c 89 37 bc
       -0.11665701 0.037507232 0.10991288 -0.011202183
000010 ca c2 7e 3e ae 66 33 be 6d 56 18 be b1 da 58 3e
       0.24878994 -0.17519638 -0.14876719 0.21177174
000020 03 05 fa 3e 85 69 2c 3f 0f 0d 88 bd 97 f1 73 3e
       0.4883195 0.6734851 -0.06643116 0.23822628
000030 05 c0 cd 3e b0 59 86 3d 5a 23 9c bd 53 0e 0f 3e
       0.40185562 0.06560075 -0.0762393 0.13970308
000040 1a 77 40 3e 5c f0 ee bd db b4 9a bd 79 14 a5 3e
       0.18795434 -0.11666939 -0.07554027 0.32242182
000050 0c 3d b5 3d bd 0f 39 3f fd 6e 1e be d0 7b 27 3d
       0.088495344 0.7228964 -0.15472026 0.04088956
000060 bd ab d1 bd 6d 00 9e be 12 dd 5d 3b ab 99 3b be
       -0.102378346 -0.308597 0.0033853692 -0.18320338
000070 a4 20 a2 bc 4c 02 8a 3e 22 12 d2 3c 92 43 6f 3d
       -0.019790955 0.26954877 0.025643412 0.05841405
000080 11 93 1d be 2a f9 9e 3d bd b3 bd 3e 45 9b 44 bd
       -0.15388133 0.07762368 0.37051192 -0.04799964
000090 22 a7 4d be 03 2c 03 be c6 69 96 3e 73 54 42 3d
       -0.20083287 -0.12809758 0.29377574 0.04744382
0000a0 7f 13 5e be 38 f2 3b 3f 7c 19 c4 3e c8 8a 39 3b
       -0.21687125 0.7341647 0.38300693 0.002831148
0000b0 79 c1 a7 3e 8c 9d d1 bd e7 33 f1 3e 82 98 9e bd
       0.32764795 -0.10235128 0.4710991 -0.07743932
0000c0 3d ce 8d bd f4 a2 f0 bd 93 86 59 bd 27 40 06 3f
       -0.069241025 -0.11749831 -0.053106856 0.5244164
0000d0 32 df 99 bd d8 0b 83 be c0 6e 08 3e 88 fb ef bd
       -0.07513274 -0.25594974 0.13323498 -0.11717898
0000e0 8c 41 70 be f3 17 b5 bd 41 d2 b9 bd 17 a2 0b be
       -0.23462504 -0.088424586 -0.09073306 -0.13636051
0000f0 dc ce 4d 3d 3b 19 83 3e 91 9f da 3d 3e 23 f4 3b
       0.050246105 0.25605187 0.10674966 0.0074504903

fc3.weight f4 [4, 64]
000000 a6 c4 21 3d 35 e1 91 3e ee b5 02 3f 0b 71 13 3e
       0.03949418 0.28492132 0.5105885 0.14398591
000010 66 e3 82 3e ca 15 9b bd ef e4 9e 3d 74 30 da 3d
       0.25564116 -0.07572515 0.07758509 0.10653773
000020 7f e0 24 3e 5e 28 51 3e 22 bb 82 3e 2d 3a 92 3e
       0.16101263 0.20425555 0.25533396 0.2856001
000030 a2 b5 2c 3e 52 bb f2 3e 30 50 1c bd 12 01 73 3e
       0.16866162 0.4740854 -0.03816241 0.23730877
000040 de b9 3f 3e 19 6b 6e 3e 7d 7e a6 bb d0 df 3c 3e
       0.18723246 0.23283042 -0.0050809965 0.18444753
000050 35 6f 00 3e 6b 20 77 3e fd 5c 63 be 94 12 12 3e
       0.12542422 0.2413346 -0.22203441 0.142649
000060 79 b0 8b 3e dc 2b 05 be cd 50 d5 3e 30 c3 b6 be
       0.27283075 -0.13005012 0.4166321 -0.3569579
000070 2c 29 e0 3e 5e 93 b7 3d a5 5f 98 be 22 22 e5 3d
       0.43781412 0.08963655 -0.2976047 0.11188151
000080 81 67 dc be 11 60 89 3e b5 40 45 3e 69 80 34 3f
       -0.43047717 0.26831105 0.19262965 0.7050844
000090 97 10 3a bd 22 25 ed bd 11 8d eb 3e 53 ab 86 3d
       -0.045425978 -0.11579348 0.46006063 0.06575646
0000a0 5e 3b db bd e7 9e 5f 3e 85 0d 8b 3e f4 f6 c5 3c
       -0.10704683 0.2183796 0.27158752 0.024165608
0000b0 29 d2 34 3e 37 60 88 3c c9 0c 5b 3e 2a 06 e6 bd
       0.17658295 0.016647441 0.21391596 -0.112316445
0000c0 de a5 09 be f6 58 cd bd 8f f0 2c 3d 01 77 83 3e
       -0.1344218 -0.100267336 0.042221602 0.2567673
0000d0 f3 9b c1 3e 10 35 65 be 35 cd 12 3e 69 7e c1 be
       0.37814292 -0.22383523 0.14336093 -0.37791756
0000e0 cf b4 10 be c6 54 d5 3d 2e 4a df 3e a4 34 d3 be
       -0.14131473 0.1041656 0.43611282 -0.412511
0000f0 28 1e b4 be 76 78 65 3e 5e 4b 0a be 83 ea 40 3e
       -0.35179257 0.22409233 -0.13505313 0.18839459
000100 be ea 77 3d 4f 0d 4e 3e 9d 8c 06 3f 53 4f 50 3d
       0.060526602 0.20122264 0.5255831 0.0508569
000110 fa 2e 9d 3e 57 cf 09 3d 02 7d 50 3d 8c 6c 9b 3e
       0.30699903 0.033645 0.050900467 0.30356252
000120 58 29 e7 3d a9 6b 6c 3e 9b 30 9e 3e 5c e9 9e 3e
       0.112871826 0.23087944 0.30896458 0.31037414
000130 19 01 3d 3e 3e f9 a8 3e 60 de a5 bc 98 fd 9d 3e
       0.1845745 0.33002657 -0.020247638 0.3085754
000140 c7 2f 80 3e e9 ef 15 3e 57 82 bc 3d 3a 42 ff 3d
       0.2503645 0.146423 0.09204548 0.124638036
000150 ff 31 6c 3e 1a c4 7b 3e a8 d4 03 be 84 d5 5d 3e
       0.23065947 0.24586526 -0.1287409 0.21663481
000160 a3 f7 22 3f 45 2f 9d bd 89 83 37 3f bb d0 af be
       0.63659114 -0.076750316 0.7168508 -0.34338936
000170 53 e1 dc 3e 26 4c 1f 3e 6d d1 3f 3d 65 4e fa 3d
       0.4314066 0.15556392 0.046830583 0.12221984
000180 e8 4a 83 be eb 51 c4 3e c7 20 2f 3e 64 83 24 3f
       -0.25643086 0.38343748 0.17102347 0.64262986
000190 d4 25 42 bd 09 65 a2 bd a2 59 c0 3e 23 8e 4d 3d
       -0.047399357 -0.07929427 0.37568384 0.05018438
0001a0 9b 26 38 bd a4 bf 70 3e 51 24 6f 3e 04 4c ac bc
       -0.044958692 0.23510605 0.23353697 -0.02103234
0001b0 69 e5 2f 3e 0c cf 04 bd 55 32 15 3e ae 74 00 3e
       0.17177357 -0.032424018 0.14569981 0.1254451
0001c0 e3 5c aa bc 36 5b c3 be 5d 25 0d 3e 24 b5 72 3e
       -0.020796245 -0.38155526 0.13783784 0.23701912
0001d0 8f 64 51 3e 49 23 07 be 65 48 0e 3e 94 13 3c 3e
       0.20448516 -0.13197054 0.13894804 0.18366843
0001e0 10 b5 45 be 4e 32 20 be d1 0b 8c 3e 47 40 60 be
       -0.19307351 -0.1564419 0.27352765 -0.2189952
0001f0 78 5b e1 bd ba 52 c9 3d 86 ea a1 be c6 1a 05 3e
       -0.110037744 0.09830232 -0.3162424 0.12998495
000200 8e 68 35 bf 0c 15 1d 3c 6e 12 15 3f 10 64 fe 3e
       -0.7086266 0.0095875375 0.58231246 0.49685717
000210 55 9a 70 3e 25 83 2b 3e 97 6d d2 3d 15 f2 87 3e
       0.23496373 0.16749246 0.10274809 0.2655188
000220 3f 9c 6c 3e af 08 5a 3e 03 7e 3a 3e 8a 06 c6 3e
       0.23106478 0.21292375 0.18212132 0.38676864
000230 0a 02 89 3e 4d 06 b3 3d 66 5c 98 bd 1a 28 38 bc
       0.26759368 0.08741436 -0.074394986 -0.01124003
000240 78 50 65 3e d1 15 fa be 14 9d ef be b9 68 ae 3d
       0.22393978 -0.4884477 -0.4679953 0.08516068
000250 d2 23 fc 3c a1 49 83 3e 1f 01 a3 be c3 bc 2d 3e
       0.0307788 0.25642112 -0.31836793 0.16966538
000260 c2 5c 4b 3f 43 18 50 be fe 7f d3 be 0a 78 9c be
       0.7943841 -0.20321755 -0.41308588 -0.30560333
000270 e9 f6 ec 3e 2a e3 17 3e 09 f3 c0 bd cd e3 b7 bc
       0.46282127 0.1483275 -0.09421355 -0.022447491
000280 ce d0 cd be b6 9e 16 3f 10 ed 22 3e b7 69 04 3f
       -0.40198368 0.58835924 0.15910745 0.5172381
000290 5d 4a 48 3d 83 70 8b be ee 63 0e 3e 50 d5 0f 3e
       0.048899043 -0.27234277 0.13905308 0.14046216
0002a0 01 aa d5 bd d1 f8 7a 3e 5c 6a 7e 3e 7a 2a 2a 3e
       -0.10432816 0.24508978 0.2484526 0.16617766
0002b0 72 96 89 3d 66 ad ad bd 06 89 46 3e 58 4e c6 3e
       0.06718148 -0.08480339 0.19388208 0.38731647
0002c0 c4 1e 0b 3e 62 77 f8 bd 76 09 26 3e bd 65 a9 3e
       0.13585955 -0.121321455 0.16214547 0.33085433
0002d0 02 9c a8 3c bf 97 cd bd 1a 25 af 3e 2b d0 8e 3c
       0.020582203 -0.10038709 0.34207994 0.017433247
0002e0 1f f4 be be 96 33 0a 3f c2 38 8c be 23 83 8c be
       -0.37295625 0.53984964 -0.27387053 -0.274438
0002f0 01 e1 83 be 54 67 96 3d 60 aa 75 bf 3d 10 0e 3d
       -0.25757602 0.07343927 -0.95963097 0.034683455
000300 e2 9e a5 3e 9f 74 55 bc 69 5c 8b 3e ac 08 e3 bd
       0.3234778 -0.013028293 0.2721894 -0.110856384
000310 e1 51 82 3e c0 a4 ed 3d 82 b8 5a bd 26 3b 89 3e
       0.25453094 0.11603689 -0.053398617 0.2680294
000320 50 08 f6 3d f7 73 86 3e 42 72 ee 3e 10 f7 81 3e
       0.12013304 0.2626035 0.46571547 0.25383806
000330 ec 4f 8f 3e 83 18 08 3e 32 07 32 3d 51 f1 af 3d
       0.27990663 0.132906 0.043463893 0.08590949
000340 7a 39 a6 3e ea 92 16 be 8a 2a 8c be f2 b0 42 3e
       0.32465726 -0.14704481 -0.27376205 0.19012812
000350 1f 6f 01 3e cc 85 80 3e b9 7c ae bc cc 47 2c 3e
       0.12640046 0.2510208 -0.021299707 0.16824263
000360 e9 56 1a bd 96 17 2b be 9a fe 37 3f d7 b8 2b be
       -0.03768054 -0.16708216 0.71872866 -0.1676973
000370 e4 68 93 3e 2f 33 18 3d f5 be ea be 52 92 2d 3e
       0.28790963 0.037158187 -0.45848814 0.16950348
000380 8c 1c 57 be a9 0c 1f 3f a5 51 ba 3d 76 de 80 bd
       -0.21006984 0.6212869 0.09097604 -0.06292431
000390 df df 8b be 76 dc e6 3c a8 77 2c 3e 07 59 bc 3e
       -0.27319238 0.028181296 0.1684252 0.36786672
0003a0 70 c0 8a be 06 ee 8e 3e a6 ef a4 3e 20 b2 15 be
       -0.27099943 0.27915972 0.32214087 -0.1461873
0003b0 8a 69 31 3e 7e 51 21 be 9a 6c 19 3e fd c9 09 be
       0.17325416 -0.15753743 0.14982834 -0.13455959
0003c0 c9 61 1c 3d 9c 58 aa be b7 a5 90 3e 56 d6 90 3e
       0.038179193 -0.3327073 0.2825143 0.28288525
0003d0 5e 49 0d bf d6 32 8a be 2c 8f 5b 3e d7 bf 1a 3e
       -0.55190074 -0.2699191 0.21441334 0.15112244
0003e0 37 d9 18 bf 8a c0 89 be 81 02 b8 3d 98 d1 d9 be
       -0.59706444 -0.26904708 0.089848526 -0.4254272
0003f0 2e c0 36 bf f7 42 ba 3d 6f d0 e1 be 61 bf 6e 3e
       -0.7138699 0.09094804 -0.44104335 0.23315193

fc3.bias f4 [4]
000000 7f 2e dd 3e eb de db 3e 52 04 ab 3e 6d 25 a4 3e
       0.43199536 0.4294351 0.33401734 0.32059804
